2023-03-07 23:12:55,543 - lr:1e-05,weight_decay:0.01,batch_size:20
2023-03-07 23:12:55,543 - FullConnect(
  (linear1): Linear(in_features=39, out_features=256, bias=True)
  (linear2): Linear(in_features=256, out_features=256, bias=True)
  (linear3): Linear(in_features=256, out_features=128, bias=True)
  (linear4): Linear(in_features=128, out_features=128, bias=True)
  (linear5): Linear(in_features=128, out_features=64, bias=True)
  (linear6): Linear(in_features=64, out_features=64, bias=True)
  (linear7): Linear(in_features=64, out_features=40, bias=True)
  (linear9): Linear(in_features=40, out_features=40, bias=True)
  (linear10): Linear(in_features=40, out_features=40, bias=True)
  (linear11): Linear(in_features=40, out_features=40, bias=True)
  (linear8): Linear(in_features=40, out_features=2, bias=True)
  (relu): ReLU()
)
2023-03-07 23:12:55,543 - This is for user7
2023-03-07 23:12:56,050 - Epoch:0/200,Train Accuracy:51.417911529541016%
2023-03-07 23:12:56,297 - Epoch:1/200,Train Accuracy:63.2835807800293%
2023-03-07 23:12:56,542 - Epoch:2/200,Train Accuracy:67.46268463134766%
2023-03-07 23:12:56,786 - Epoch:3/200,Train Accuracy:68.88059997558594%
2023-03-07 23:12:57,031 - Epoch:4/200,Train Accuracy:69.92537689208984%
…
