2023-04-06 15:28:27,756 - lr:1e-05,weight_decay:0.01,batch_size:20
2023-04-06 15:28:27,756 - FullConnect(
  (linear1): Linear(in_features=39, out_features=256, bias=True)
  (linear2): Linear(in_features=256, out_features=256, bias=True)
  (linear3): Linear(in_features=256, out_features=128, bias=True)
  (linear4): Linear(in_features=128, out_features=128, bias=True)
  (linear5): Linear(in_features=128, out_features=64, bias=True)
  (linear6): Linear(in_features=64, out_features=64, bias=True)
  (linear7): Linear(in_features=64, out_features=40, bias=True)
  (linear8): Linear(in_features=40, out_features=40, bias=True)
  (linear9): Linear(in_features=40, out_features=40, bias=True)
  (linear10): Linear(in_features=40, out_features=40, bias=True)
  (linear11): Linear(in_features=40, out_features=2, bias=True)
  (relu): ReLU()
)
2023-04-06 15:28:27,757 - This is for user7
2023-04-06 15:28:39,344 - Epoch:0/200,Train Accuracy:49.17910385131836%
2023-04-06 15:28:39,644 - Epoch:1/200,Train Accuracy:49.17910385131836%
2023-04-06 15:28:39,932 - Epoch:2/200,Train Accuracy:49.17910385131836%
2023-04-06 15:28:40,222 - Epoch:3/200,Train Accuracy:49.17910385131836%
2023-04-06 15:28:40,523 - Epoch:4/200,Train Accuracy:49.17910385131836%
…
