2023-03-07 22:53:51,809 - lr:1e-05,weight_decay:0.01,batch_size:20
2023-03-07 22:53:51,809 - FullConnect(
  (linear1): Linear(in_features=39, out_features=256, bias=True)
  (linear2): Linear(in_features=256, out_features=256, bias=True)
  (linear3): Linear(in_features=256, out_features=128, bias=True)
  (linear4): Linear(in_features=128, out_features=128, bias=True)
  (linear5): Linear(in_features=128, out_features=64, bias=True)
  (linear6): Linear(in_features=64, out_features=64, bias=True)
  (linear7): Linear(in_features=64, out_features=40, bias=True)
  (linear9): Linear(in_features=40, out_features=40, bias=True)
  (linear10): Linear(in_features=40, out_features=40, bias=True)
  (linear8): Linear(in_features=40, out_features=2, bias=True)
  (relu): ReLU()
)
2023-03-07 22:53:51,809 - This is for user7
2023-03-07 22:53:52,258 - Epoch:0/200,Train Accuracy:62.6119384765625%
2023-03-07 22:53:52,497 - Epoch:1/200,Train Accuracy:69.55223846435547%
2023-03-07 22:53:52,732 - Epoch:2/200,Train Accuracy:68.50746154785156%
2023-03-07 22:53:52,968 - Epoch:3/200,Train Accuracy:69.776123046875%
2023-03-07 22:53:53,203 - Epoch:4/200,Train Accuracy:68.13433074951172%
…
