2023-04-06 15:58:10,881 - lr:1e-05,weight_decay:0.01,batch_size:20
2023-04-06 15:58:10,881 - FullConnect(
  (linear1): Linear(in_features=39, out_features=256, bias=True)
  (linear2): Linear(in_features=256, out_features=256, bias=True)
  (linear3): Linear(in_features=256, out_features=128, bias=True)
  (linear4): Linear(in_features=128, out_features=128, bias=True)
  (linear5): Linear(in_features=128, out_features=64, bias=True)
  (linear6): Linear(in_features=64, out_features=64, bias=True)
  (linear7): Linear(in_features=64, out_features=40, bias=True)
  (linear8): Linear(in_features=40, out_features=40, bias=True)
  (linear9): Linear(in_features=40, out_features=40, bias=True)
  (linear10): Linear(in_features=40, out_features=40, bias=True)
  (linear11): Linear(in_features=40, out_features=2, bias=True)
  (relu): ReLU()
)
2023-04-06 15:58:10,881 - This is for user7
2023-04-06 15:58:11,234 - Epoch:0/300,Train Accuracy:49.17910385131836%
2023-04-06 15:58:11,378 - Epoch:1/300,Train Accuracy:48.955223083496094%
2023-04-06 15:58:11,520 - Epoch:2/300,Train Accuracy:50.52238845825195%
2023-04-06 15:58:11,661 - Epoch:3/300,Train Accuracy:50.44776153564453%
2023-04-06 15:58:11,803 - Epoch:4/300,Train Accuracy:50.6716423034668%
…
