2023-04-06 21:53:48,553 - lr:0.0001,weight_decay:3,batch_size:20
2023-04-06 21:53:48,553 - FullConnect(
  (linear1): Linear(in_features=39, out_features=256, bias=True)
  (linear2): Linear(in_features=256, out_features=256, bias=True)
  (linear3): Linear(in_features=256, out_features=128, bias=True)
  (linear4): Linear(in_features=128, out_features=128, bias=True)
  (linear5): Linear(in_features=128, out_features=64, bias=True)
  (linear6): Linear(in_features=64, out_features=64, bias=True)
  (linear7): Linear(in_features=64, out_features=40, bias=True)
  (linear8): Linear(in_features=40, out_features=40, bias=True)
  (linear9): Linear(in_features=40, out_features=40, bias=True)
  (linear10): Linear(in_features=40, out_features=40, bias=True)
  (linear11): Linear(in_features=40, out_features=2, bias=True)
  (relu): ReLU()
)
2023-04-06 21:53:48,553 - This is for user7
2023-04-06 21:53:49,025 - Epoch:0/300,Train Accuracy:50.82089614868164%
2023-04-06 21:53:49,308 - Epoch:1/300,Train Accuracy:50.82089614868164%
2023-04-06 21:53:49,590 - Epoch:2/300,Train Accuracy:62.3880615234375%
2023-04-06 21:53:49,877 - Epoch:3/300,Train Accuracy:77.6119384765625%
2023-04-06 21:53:50,161 - Epoch:4/300,Train Accuracy:78.88059997558594%
…
