2023-04-06 22:11:30,190 - lr:0.0001,weight_decay:5,batch_size:20
2023-04-06 22:11:30,190 - FullConnect(
  (linear1): Linear(in_features=39, out_features=256, bias=True)
  (linear2): Linear(in_features=256, out_features=256, bias=True)
  (linear3): Linear(in_features=256, out_features=128, bias=True)
  (linear4): Linear(in_features=128, out_features=128, bias=True)
  (linear5): Linear(in_features=128, out_features=64, bias=True)
  (linear6): Linear(in_features=64, out_features=64, bias=True)
  (linear7): Linear(in_features=64, out_features=40, bias=True)
  (linear8): Linear(in_features=40, out_features=40, bias=True)
  (linear9): Linear(in_features=40, out_features=40, bias=True)
  (linear10): Linear(in_features=40, out_features=40, bias=True)
  (linear11): Linear(in_features=40, out_features=2, bias=True)
  (relu): ReLU()
)
2023-04-06 22:11:30,190 - This is for user7
2023-04-06 22:11:30,662 - Epoch:0/300,Train Accuracy:51.19403076171875%
2023-04-06 22:11:30,923 - Epoch:1/300,Train Accuracy:50.82089614868164%
2023-04-06 22:11:31,179 - Epoch:2/300,Train Accuracy:50.6716423034668%
2023-04-06 22:11:31,438 - Epoch:3/300,Train Accuracy:50.597015380859375%
2023-04-06 22:11:31,694 - Epoch:4/300,Train Accuracy:51.56716537475586%
…
