2023-03-23 22:52:30,928 - lr:1e-05,weight_decay:0.01,batch_size:20
2023-03-23 22:52:30,928 - FullConnect(
  (linear1): Linear(in_features=39, out_features=256, bias=True)
  (linear2): Linear(in_features=256, out_features=256, bias=True)
  (linear3): Linear(in_features=256, out_features=128, bias=True)
  (linear4): Linear(in_features=128, out_features=128, bias=True)
  (linear5): Linear(in_features=128, out_features=64, bias=True)
  (linear6): Linear(in_features=64, out_features=64, bias=True)
  (linear7): Linear(in_features=64, out_features=40, bias=True)
  (linear9): Linear(in_features=40, out_features=40, bias=True)
  (linear10): Linear(in_features=40, out_features=40, bias=True)
  (linear11): Linear(in_features=40, out_features=40, bias=True)
  (linear8): Linear(in_features=40, out_features=2, bias=True)
  (relu): ReLU()
)
2023-03-23 22:52:30,928 - This is for user7
2023-03-23 22:52:32,407 - Epoch:0/200,Train Accuracy:84.89552307128906%
2023-03-23 22:52:33,774 - Epoch:1/200,Train Accuracy:86.92537689208984%
2023-03-23 22:52:35,069 - Epoch:2/200,Train Accuracy:86.64179229736328%
2023-03-23 22:52:36,409 - Epoch:3/200,Train Accuracy:87.4328384399414%
2023-03-23 22:52:37,708 - Epoch:4/200,Train Accuracy:87.46268463134766%
…
