2023-04-06 15:56:38,232 - lr:1e-05,weight_decay:0.01,batch_size:20
2023-04-06 15:56:38,232 - FullConnect(
  (linear1): Linear(in_features=39, out_features=256, bias=True)
  (linear2): Linear(in_features=256, out_features=256, bias=True)
  (linear3): Linear(in_features=256, out_features=128, bias=True)
  (linear4): Linear(in_features=128, out_features=128, bias=True)
  (linear5): Linear(in_features=128, out_features=64, bias=True)
  (linear6): Linear(in_features=64, out_features=64, bias=True)
  (linear7): Linear(in_features=64, out_features=40, bias=True)
  (linear8): Linear(in_features=40, out_features=40, bias=True)
  (linear9): Linear(in_features=40, out_features=40, bias=True)
  (linear10): Linear(in_features=40, out_features=40, bias=True)
  (linear11): Linear(in_features=40, out_features=2, bias=True)
  (relu): ReLU()
)
2023-04-06 15:56:38,232 - This is for user7
2023-04-06 15:56:38,620 - Epoch:0/300,Train Accuracy:49.25373077392578%
2023-04-06 15:56:38,801 - Epoch:1/300,Train Accuracy:49.55223846435547%
2023-04-06 15:56:38,981 - Epoch:2/300,Train Accuracy:50.0%
2023-04-06 15:56:39,163 - Epoch:3/300,Train Accuracy:50.29850769042969%
2023-04-06 15:56:39,342 - Epoch:4/300,Train Accuracy:51.343284606933594%
…
